…
    MULTISTEPS:
    - 700
    NAME: multistep
    WARMUP_PREFIX: true
  MIN_LR: 1.25e-06
  MOE:
    SAVE_MASTER: false
  OPTIMIZER:
    BETAS:
    - 0.9
    - 0.999
    EPS: 1.0e-08
    MOMENTUM: 0.9
    NAME: adamw
  START_EPOCH: 0
  USE_CHECKPOINT: false
  WARMUP_EPOCHS: 10
  WARMUP_LR: 1.25e-07
  WEIGHT_DECAY: 0.05

[2024-03-05 03:22:30 hydro_simmim_pretrain] (main_simmim_pt.py 73): INFO Creating model:swinv2/hydro_simmim_pretrain
[2024-03-05 03:22:31 hydro_simmim_pretrain] (main_simmim_pt.py 76): INFO SimMIM(
  (encoder): SwinTransformerV2ForSimMIM(
    (patch_embed): PatchEmbed(
      (proj): Conv2d(12, 128, kernel_size=(4, 4), stride=(4, 4))
      (norm): LayerNorm((128,), eps=1e-05, elementwise_affine=True)
    )
    (pos_drop): Dropout(p=0.0, inplace=False)
    (layers): ModuleList(
      (0): BasicLayer(
        dim=128, input_resolution=(64, 64), depth=2
        (blocks): ModuleList(
          (0): SwinTransformerBlock(
            dim=128, input_resolution=(64, 64), num_heads=4, window_size=16, shift_size=0, mlp_ratio=4.0
            (norm1): LayerNorm((128,), eps=1e-05, elementwise_affine=True)
            (attn): WindowAttention(
              dim=128, window_size=(16, 16), pretrained_window_size=(0, 0), num_heads=4
              (cpb_mlp): Sequential(
                (0): Linear(in_features=2, out_features=512, bias=True)
                (1): ReLU(inplace=True)
                (2): Linear(in_features=512, out_features=4, bias=False)
              )
              (qkv): Linear(in_features=128, out_features=384, bias=False)
              (attn_drop): Dropout(p=0.0, inplace=False)
              (proj): Linear(in_features=128, out_features=128, bias=True)
              (proj_drop): Dropout(p=0.0, inplace=False)
              (softmax): Softmax(dim=-1)
            )
            (drop_path): Identity()
            (norm2): LayerNorm((128,), eps=1e-05, elementwise_affine=True)
            (mlp): Mlp(
              (fc1): Linear(in_features=128, out_features=512, bias=True)
              (act): GELU(approximate='none')
              (fc2): Linear(in_features=512, out_features=128, bias=True)
              (drop): Dropout(p=0.0, inplace=False)
            )
          )
          (1): SwinTransformerBlock(
            dim=128, input_resolution=(64, 64), num_heads=4, window_size=16, shift_size=8, mlp_ratio=4.0
            (norm1): LayerNorm((128,), eps=1e-05, elementwise_affine=True)
            (attn): WindowAttention(
              dim=128, window_size=(16, 16), pretrained_window_size=(0, 0), num_heads=4
              (cpb_mlp): Sequential(
                (0): Linear(in_features=2, out_features=512, bias=True)
                (1): ReLU(inplace=True)
                (2): Linear(in_features=512, out_features=4, bias=False)
              )
              (qkv): Linear(in_features=128, out_features=384, bias=False)
              (attn_drop): Dropout(p=0.0, inplace=False)
              (proj): Linear(in_features=128, out_features=128, bias=True)
              (proj_drop): Dropout(p=0.0, inplace=False)
              (softmax): Softmax(dim=-1)
            )
            (drop_path): DropPath(drop_prob=0.004)
            (norm2): LayerNorm((128,), eps=1e-05, elementwise_affine=True)
            (mlp): Mlp(
              (fc1): Linear(in_features=128, out_features=512, bias=True)
              (act): GELU(approximate='none')
              (fc2): Linear(in_features=512, out_features=128, bias=True)
              (drop): Dropout(p=0.0, inplace=False)
            )
          )
        )
        (downsample): PatchMerging(
          input_resolution=(64, 64), dim=128
          (reduction): Linear(in_features=512, out_features=256, bias=False)
          (norm): LayerNorm((256,), eps=1e-05, elementwise_affine=True)
        )
      )
      (1): BasicLayer(
        dim=256, input_resolution=(32, 32), depth=2
        (blocks): ModuleList(
          (0): SwinTransformerBlock(
            dim=256, input_resolution=(32, 32), num_heads=8, window_size=16, shift_size=0, mlp_ratio=4.0
            (norm1): LayerNorm((256,), eps=1e-05, elementwise_affine=True)
            (attn): WindowAttention(
              dim=256, window_size=(16, 16), pretrained_window_size=(0, 0), num_heads=8
              (cpb_mlp): Sequential(
                (0): Linear(in_features=2, out_features=512, bias=True)
                (1): ReLU(inplace=True)
                (2): Linear(in_features=512, out_features=8, bias=False)
              )
              (qkv): Linear(in_features=256, out_features=768, bias=False)
              (attn_drop): Dropout(p=0.0, inplace=False)
              (proj): Linear(in_features=256, out_features=256, bias=True)
              (proj_drop): Dropout(p=0.0, inplace=False)
              (softmax): Softmax(dim=-1)
            )
            (drop_path): DropPath(drop_prob=0.009)
            (norm2): LayerNorm((256,), eps=1e-05, elementwise_affine=True)
            (mlp): Mlp(
              (fc1): Linear(in_features=256, out_features=1024, bias=True)
              (act): GELU(approximate='none')
              (fc2): Linear(in_features=1024, out_features=256, bias=True)
              (drop): Dropout(p=0.0, inplace=False)
            )
          )
          (1): SwinTransformerBlock(
            dim=256, input_resolution=(32, 32), num_heads=8, window_size=16, shift_size=8, mlp_ratio=4.0
            (norm1): LayerNorm((256,), eps=1e-05, elementwise_affine=True)
            (attn): WindowAttention(
              dim=256, window_size=(16, 16), pretrained_window_size=(0, 0), num_heads=8
              (cpb_mlp): Sequential(
                (0): Linear(in_features=2, out_features=512, bias=True)
                (1): ReLU(inplace=True)
                (2): Linear(in_features=512, out_features=8, bias=False)
              )
              (qkv): Linear(in_features=256, out_features=768, bias=False)
              (attn_drop): Dropout(p=0.0, inplace=False)
              (proj): Linear(in_features=256, out_features=256, bias=True)
              (proj_drop): Dropout(p=0.0, inplace=False)
              (softmax): Softmax(dim=-1)
            )
            (drop_path): DropPath(drop_prob=0.013)
            (norm2): LayerNorm((256,), eps=1e-05, elementwise_affine=True)
            (mlp): Mlp(
              (fc1): Linear(in_features=256, out_features=1024, bias=True)
              (act): GELU(approximate='none')
              (fc2): Linear(in_features=1024, out_features=256, bias=True)
              (drop): Dropout(p=0.0, inplace=False)
            )
          )
        )
        (downsample): PatchMerging(
          input_resolution=(32, 32), dim=256
          (reduction): Linear(in_features=1024, out_features=512, bias=False)
          (norm): LayerNorm((512,), eps=1e-05, elementwise_affine=True)
        )
      )
      (2): BasicLayer(
        dim=512, input_resolution=(16, 16), depth=18
        (blocks): ModuleList(
          (0): SwinTransformerBlock(
            dim=512, input_resolution=(16, 16), num_heads=16, window_size=16, shift_size=0, mlp_ratio=4.0
            (norm1): LayerNorm((512,), eps=1e-05, elementwise_affine=True)
            (attn): WindowAttention(
              dim=512, window_size=(16, 16), pretrained_window_size=(0, 0), num_heads=16
              (cpb_mlp): Sequential(
                (0): Linear(in_features=2, out_features=512, bias=True)
                (1): ReLU(inplace=True)
                (2): Linear(in_features=512, out_features=16, bias=False)
              )
              (qkv): Linear(in_features=512, out_features=1536, bias=False)
              (attn_drop): Dropout(p=0.0, inplace=False)
              (proj): Linear(in_features=512, out_features=512, bias=True)
              (proj_drop): Dropout(p=0.0, inplace=False)
              (softmax): Softmax(dim=-1)
            )
            (drop_path): DropPath(drop_prob=0.017)
            (norm2): LayerNorm((512,), eps=1e-05, elementwise_affine=True)
            (mlp): Mlp(
              (fc1): Linear(in_features=512, out_features=2048, bias=True)
              (act): GELU(approximate='none')
              (fc2): Linear(in_features=2048, out_features=512, bias=True)
              (drop): Dropout(p=0.0, inplace=False)
            )
          )
          (1): SwinTransformerBlock(
            dim=512, input_resolution=(16, 16), num_heads=16, window_size=16, shift_size=0, mlp_ratio=4.0
            (norm1): LayerNorm((512,), eps=1e-05, elementwise_affine=True)
            (attn): WindowAttention(
              dim=512, window_size=(16, 16), pretrained_window_size=(0, 0), num_heads=16
              (cpb_mlp): Sequential(
                (0): Linear(in_features=2, out_features=512, bias=True)
                (1): ReLU(inplace=True)
                (2): Linear(in_features=512, out_features=16, bias=False)
              )
              (qkv): Linear(in_features=512, out_features=1536, bias=False)
              (attn_drop): Dropout(p=0.0, inplace=False)
              (proj): Linear(in_features=512, out_features=512, bias=True)
              (proj_drop): Dropout(p=0.0, inplace=False)
              (softmax): Softmax(dim=-1)
            )
            (drop_path): DropPath(drop_prob=0.022)
            (norm2): LayerNorm((512,), eps=1e-05, elementwise_affine=True)
            (mlp): Mlp(
              (fc1): Linear(in_features=512, out_features=2048, bias=True)
              (act): GELU(approximate='none')
              (fc2): Linear(in_features=2048, out_features=512, bias=True)
              (drop): Dropout(p=0.0, inplace=False)
            )
          )
          (2): SwinTransformerBlock(
            dim=512, input_resolution=(16, 16), num_heads=16, window_size=16, shift_size=0, mlp_ratio=4.0
            (norm1): LayerNorm((512,), eps=1e-05, elementwise_affine=True)
            (attn): WindowAttention(
              dim=512, window_size=(16, 16), pretrained_window_size=(0, 0), num_heads=16
              (cpb_mlp): Sequential(
                (0): Linear(in_features=2, out_features=512, bias=True)
                (1): ReLU(inplace=True)
                (2): Linear(in_features=512, out_features=16, bias=False)
              )
              (qkv): Linear(in_features=512, out_features=1536, bias=False)
              (attn_drop): Dropout(p=0.0, inplace=False)
              (proj): Linear(in_features=512, out_features=512, bias=True)
              (proj_drop): Dropout(p=0.0, inplace=False)
              (softmax): Softmax(dim=-1)
            )
            (drop_path): DropPath(drop_prob=0.026)
            (norm2): LayerNorm((512,), eps=1e-05, elementwise_affine=True)
            (mlp): Mlp(
              (fc1): Linear(in_features=512, out_features=2048, bias=True)
              (act): GELU(approximate='none')
              (fc2): Linear(in_features=2048, out_features=512, bias=True)
              (drop): Dropout(p=0.0, inplace=False)
            )
          )
          (3): SwinTransformerBlock(
            dim=512, input_resolution=(16, 16), num_heads=16, window_size=16, shift_size=0, mlp_ratio=4.0
            (norm1): LayerNorm((512,), eps=1e-05, elementwise_affine=True)
            (attn): WindowAttention(
              dim=512, window_size=(16, 16), pretrained_window_size=(0, 0), num_heads=16
              (cpb_mlp): Sequential(
                (0): Linear(in_features=2, out_features=512, bias=True)
                (1): ReLU(inplace=True)
                (2): Linear(in_features=512, out_features=16, bias=False)
              )
              (qkv): Linear(in_features=512, out_features=1536, bias=False)
              (attn_drop): Dropout(p=0.0, inplace=False)
              (proj): Linear(in_features=512, out_features=512, bias=True)
              (proj_drop): Dropout(p=0.0, inplace=False)
              (softmax): Softmax(dim=-1)
            )
            (drop_path): DropPath(drop_prob=0.030)
            (norm2): LayerNorm((512,), eps=1e-05, elementwise_affine=True)
            (mlp): Mlp(
              (fc1): Linear(in_features=512, out_features=2048, bias=True)
              (act): GELU(approximate='none')
              (fc2): Linear(in_features=2048, out_features=512, bias=True)
              (drop): Dropout(p=0.0, inplace=False)
            )
          )
          (4): SwinTransformerBlock(
            dim=512, input_resolution=(16, 16), num_heads=16, window_size=16, shift_size=0, mlp_ratio=4.0
            (norm1): LayerNorm((512,), eps=1e-05, elementwise_affine=True)
            (attn): WindowAttention(
              dim=512, window_size=(16, 16), pretrained_window_size=(0, 0), num_heads=16
              (cpb_mlp): Sequential(
                (0): Linear(in_features=2, out_features=512, bias=True)
                (1): ReLU(inplace=True)
                (2): Linear(in_features=512, out_features=16, bias=False)
              )
              (qkv): Linear(in_features=512, out_features=1536, bias=False)
              (attn_drop): Dropout(p=0.0, inplace=False)
              (proj): Linear(in_features=512, out_features=512, bias=True)
              (proj_drop): Dropout(p=0.0, inplace=False)
              (softmax): Softmax(dim=-1)
            )
            (drop_path): DropPath(drop_prob=0.035)
            (norm2): LayerNorm((512,), eps=1e-05, elementwise_affine=True)
            (mlp): Mlp(
              (fc1): Linear(in_features=512, out_features=2048, bias=True)
              (act): GELU(approximate='none')
              (fc2): Linear(in_features=2048, out_features=512, bias=True)
              (drop): Dropout(p=0.0, inplace=False)
            )
          )
          (5): SwinTransformerBlock(
            dim=512, input_resolution=(16, 16), num_heads=16, window_size=16, shift_size=0, mlp_ratio=4.0
            (norm1): LayerNorm((512,), eps=1e-05, elementwise_affine=True)
            (attn): WindowAttention(
              dim=512, window_size=(16, 16), pretrained_window_size=(0, 0), num_heads=16
              (cpb_mlp): Sequential(
                (0): Linear(in_features=2, out_features=512, bias=True)
                (1): ReLU(inplace=True)
                (2): Linear(in_features=512, out_features=16, bias=False)
              )
              (qkv): Linear(in_features=512, out_features=1536, bias=False)
              (attn_drop): Dropout(p=0.0, inplace=False)
              (proj): Linear(in_features=512, out_features=512, bias=True)
              (proj_drop): Dropout(p=0.0, inplace=False)
              (softmax): Softmax(dim=-1)
            )
            (drop_path): DropPath(drop_prob=0.039)
            (norm2): LayerNorm((512,), eps=1e-05, elementwise_affine=True)
            (mlp): Mlp(
              (fc1): Linear(in_features=512, out_features=2048, bias=True)
              (act): GELU(approximate='none')
              (fc2): Linear(in_features=2048, out_features=512, bias=True)
              (drop): Dropout(p=0.0, inplace=False)
            )
          )
          (6): SwinTransformerBlock(
            dim=512, input_resolution=(16, 16), num_heads=16, window_size=16, shift_size=0, mlp_ratio=4.0
            (norm1): LayerNorm((512,), eps=1e-05, elementwise_affine=True)
            (attn): WindowAttention(
              dim=512, window_size=(16, 16), pretrained_window_size=(0, 0), num_heads=16
              (cpb_mlp): Sequential(
                (0): Linear(in_features=2, out_features=512, bias=True)
                (1): ReLU(inplace=True)
                (2): Linear(in_features=512, out_features=16, bias=False)
              )
              (qkv): Linear(in_features=512, out_features=1536, bias=False)
              (attn_drop): Dropout(p=0.0, inplace=False)
              (proj): Linear(in_features=512, out_features=512, bias=True)
              (proj_drop): Dropout(p=0.0, inplace=False)
              (softmax): Softmax(dim=-1)
            )
            (drop_path): DropPath(drop_prob=0.043)
            (norm2): LayerNorm((512,), eps=1e-05, elementwise_affine=True)
            (mlp): Mlp(
              (fc1): Linear(in_features=512, out_features=2048, bias=True)
              (act): GELU(approximate='none')
              (fc2): Linear(in_features=2048, out_features=512, bias=True)
              (drop): Dropout(p=0.0, inplace=False)
            )
          )
          (7): SwinTransformerBlock(
            dim=512, input_resolution=(16, 16), num_heads=16, window_size=16, shift_size=0, mlp_ratio=4.0
            (norm1): LayerNorm((512,), eps=1e-05, elementwise_affine=True)
            (attn): WindowAttention(
              dim=512, window_size=(16, 16), pretrained_window_size=(0, 0), num_heads=16
              (cpb_mlp): Sequential(
                (0): Linear(in_features=2, out_features=512, bias=True)
                (1): ReLU(inplace=True)
                (2): Linear(in_features=512, out_features=16, bias=False)
              )
              (qkv): Linear(in_features=512, out_features=1536, bias=False)
              (attn_drop): Dropout(p=0.0, inplace=False)
              (proj): Linear(in_features=512, out_features=512, bias=True)
              (proj_drop): Dropout(p=0.0, inplace=False)
              (softmax): Softmax(dim=-1)
            )
            (drop_path): DropPath(drop_prob=0.048)
            (norm2): LayerNorm((512,), eps=1e-05, elementwise_affine=True)
            (mlp): Mlp(
              (fc1): Linear(in_features=512, out_features=2048, bias=True)
              (act): GELU(approximate='none')
              (fc2): Linear(in_features=2048, out_features=512, bias=True)
              (drop): Dropout(p=0.0, inplace=False)
            )
          )
          (8): SwinTransformerBlock(
            dim=512, input_resolution=(16, 16), num_heads=16, window_size=16, shift_size=0, mlp_ratio=4.0
            (norm1): LayerNorm((512,), eps=1e-05, elementwise_affine=True)
            (attn): WindowAttention(
              dim=512, window_size=(16, 16), pretrained_window_size=(0, 0), num_heads=16
              (cpb_mlp): Sequential(
                (0): Linear(in_features=2, out_features=512, bias=True)
                (1): ReLU(inplace=True)
                (2): Linear(in_features=512, out_features=16, bias=False)
              )
              (qkv): Linear(in_features=512, out_features=1536, bias=False)
              (attn_drop): Dropout(p=0.0, inplace=False)
              (proj): Linear(in_features=512, out_features=512, bias=True)
              (proj_drop): Dropout(p=0.0, inplace=False)
              (softmax): Softmax(dim=-1)
            )
            (drop_path): DropPath(drop_prob=0.052)
            (norm2): LayerNorm((512,), eps=1e-05, elementwise_affine=True)
            (mlp): Mlp(
              (fc1): Linear(in_features=512, out_features=2048, bias=True)
              (act): GELU(approximate='none')
              (fc2): Linear(in_features=2048, out_features=512, bias=True)
              (drop): Dropout(p=0.0, inplace=False)
            )
          )
          (9): SwinTransformerBlock(
            dim=512, input_resolution=(16, 16), num_heads=16, window_size=16, shift_size=0, mlp_ratio=4.0
            (norm1): LayerNorm((512,), eps=1e-05, elementwise_affine=True)
            (attn): WindowAttention(
              dim=512, window_size=(16, 16), pretrained_window_size=(0, 0), num_heads=16
              (cpb_mlp): Sequential(
                (0): Linear(in_features=2, out_features=512, bias=True)
                (1): ReLU(inplace=True)
                (2): Linear(in_features=512, out_features=16, bias=False)
              )
              (qkv): Linear(in_features=512, out_features=1536, bias=False)
              (attn_drop): Dropout(p=0.0, inplace=False)
              (proj): Linear(in_features=512, out_features=512, bias=True)
              (proj_drop): Dropout(p=0.0, inplace=False)
              (softmax): Softmax(dim=-1)
            )
            (drop_path): DropPath(drop_prob=0.057)
            (norm2): LayerNorm((512,), eps=1e-05, elementwise_affine=True)
            (mlp): Mlp(
              (fc1): Linear(in_features=512, out_features=2048, bias=True)
              (act): GELU(approximate='none')
              (fc2): Linear(in_features=2048, out_features=512, bias=True)
              (drop): Dropout(p=0.0, inplace=False)
            )
          )
          (10): SwinTransformerBlock(
            dim=512, input_resolution=(16, 16), num_heads=16, window_size=16, shift_size=0, mlp_ratio=4.0
            (norm1): LayerNorm((512,), eps=1e-05, elementwise_affine=True)
            (attn): WindowAttention(
              dim=512, window_size=(16, 16), pretrained_window_size=(0, 0), num_heads=16
              (cpb_mlp): Sequential(
                (0): Linear(in_features=2, out_features=512, bias=True)
                (1): ReLU(inplace=True)
                (2): Linear(in_features=512, out_features=16, bias=False)
              )
              (qkv): Linear(in_features=512, out_features=1536, bias=False)
              (attn_drop): Dropout(p=0.0, inplace=False)
              (proj): Linear(in_features=512, out_features=512, bias=True)
              (proj_drop): Dropout(p=0.0, inplace=False)
              (softmax): Softmax(dim=-1)
            )
            (drop_path): DropPath(drop_prob=0.061)
            (norm2): LayerNorm((512,), eps=1e-05, elementwise_affine=True)
            (mlp): Mlp(
              (fc1): Linear(in_features=512, out_features=2048, bias=True)
              (act): GELU(approximate='none')
              (fc2): Linear(in_features=2048, out_features=512, bias=True)
              (drop): Dropout(p=0.0, inplace=False)
            )
          )
          (11): SwinTransformerBlock(
            dim=512, input_resolution=(16, 16), num_heads=16, window_size=16, shift_size=0, mlp_ratio=4.0
            (norm1): LayerNorm((512,), eps=1e-05, elementwise_affine=True)
            (attn): WindowAttention(
              dim=512, window_size=(16, 16), pretrained_window_size=(0, 0), num_heads=16
              (cpb_mlp): Sequential(
                (0): Linear(in_features=2, out_features=512, bias=True)
                (1): ReLU(inplace=True)
                (2): Linear(in_features=512, out_features=16, bias=False)
              )
              (qkv): Linear(in_features=512, out_features=1536, bias=False)
              (attn_drop): Dropout(p=0.0, inplace=False)
              (proj): Linear(in_features=512, out_features=512, bias=True)
              (proj_drop): Dropout(p=0.0, inplace=False)
              (softmax): Softmax(dim=-1)
            )
            (drop_path): DropPath(drop_prob=0.065)
            (norm2): LayerNorm((512,), eps=1e-05, elementwise_affine=True)
            (mlp): Mlp(
              (fc1): Linear(in_features=512, out_features=2048, bias=True)
              (act): GELU(approximate='none')
              (fc2): Linear(in_features=2048, out_features=512, bias=True)
              (drop): Dropout(p=0.0, inplace=False)
            )
          )
          (12): SwinTransformerBlock(
            dim=512, input_resolution=(16, 16), num_heads=16, window_size=16, shift_size=0, mlp_ratio=4.0
            (norm1): LayerNorm((512,), eps=1e-05, elementwise_affine=True)
            (attn): WindowAttention(
              dim=512, window_size=(16, 16), pretrained_window_size=(0, 0), num_heads=16
              (cpb_mlp): Sequential(
                (0): Linear(in_features=2, out_features=512, bias=True)
                (1): ReLU(inplace=True)
                (2): Linear(in_features=512, out_features=16, bias=False)
              )
              (qkv): Linear(in_features=512, out_features=1536, bias=False)
              (attn_drop): Dropout(p=0.0, inplace=False)
              (proj): Linear(in_features=512, out_features=512, bias=True)
              (proj_drop): Dropout(p=0.0, inplace=False)
              (softmax): Softmax(dim=-1)
            )
            (drop_path): DropPath(drop_prob=0.070)
            (norm2): LayerNorm((512,), eps=1e-05, elementwise_affine=True)
            (mlp): Mlp(
              (fc1): Linear(in_features=512, out_features=2048, bias=True)
              (act): GELU(approximate='none')
              (fc2): Linear(in_features=2048, out_features=512, bias=True)
              (drop): Dropout(p=0.0, inplace=False)
            )
          )
          (13): SwinTransformerBlock(
            dim=512, input_resolution=(16, 16), num_heads=16, window_size=16, shift_size=0, mlp_ratio=4.0
            (norm1): LayerNorm((512,), eps=1e-05, elementwise_affine=True)
            (attn): WindowAttention(
              dim=512, window_size=(16, 16), pretrained_window_size=(0, 0), num_heads=16
              (cpb_mlp): Sequential(
                (0): Linear(in_features=2, out_features=512, bias=True)
                (1): ReLU(inplace=True)
                (2): Linear(in_features=512, out_features=16, bias=False)
              )
              (qkv): Linear(in_features=512, out_features=1536, bias=False)
              (attn_drop): Dropout(p=0.0, inplace=False)
              (proj): Linear(in_features=512, out_features=512, bias=True)
              (proj_drop): Dropout(p=0.0, inplace=False)
              (softmax): Softmax(dim=-1)
            )
            (drop_path): DropPath(drop_prob=0.074)
            (norm2): LayerNorm((512,), eps=1e-05, elementwise_affine=True)
            (mlp): Mlp(
              (fc1): Linear(in_features=512, out_features=2048, bias=True)
              (act): GELU(approximate='none')
              (fc2): Linear(in_features=2048, out_features=512, bias=True)
              (drop): Dropout(p=0.0, inplace=False)
            )
          )
          (14): SwinTransformerBlock(
            dim=512, input_resolution=(16, 16), num_heads=16, window_size=16, shift_size=0, mlp_ratio=4.0
            (norm1): LayerNorm((512,), eps=1e-05, elementwise_affine=True)
            (attn): WindowAttention(
              dim=512, window_size=(16, 16), pretrained_window_size=(0, 0), num_heads=16
              (cpb_mlp): Sequential(
                (0): Linear(in_features=2, out_features=512, bias=True)
                (1): ReLU(inplace=True)
                (2): Linear(in_features=512, out_features=16, bias=False)
              )
              (qkv): Linear(in_features=512, out_features=1536, bias=False)
              (attn_drop): Dropout(p=0.0, inplace=False)
              (proj): Linear(in_features=512, out_features=512, bias=True)
              (proj_drop): Dropout(p=0.0, inplace=False)
              (softmax): Softmax(dim=-1)
            )
            (drop_path): DropPath(drop_prob=0.078)
            (norm2): LayerNorm((512,), eps=1e-05, elementwise_affine=True)
            (mlp): Mlp(
              (fc1): Linear(in_features=512, out_features=2048, bias=True)
              (act): GELU(approximate='none')
              (fc2): Linear(in_features=2048, out_features=512, bias=True)
              (drop): Dropout(p=0.0, inplace=False)
            )
          )
          (15): SwinTransformerBlock(
            dim=512, input_resolution=(16, 16), num_heads=16, window_size=16, shift_size=0, mlp_ratio=4.0
            (norm1): LayerNorm((512,), eps=1e-05, elementwise_affine=True)
            (attn): WindowAttention(
              dim=512, window_size=(16, 16), pretrained_window_size=(0, 0), num_heads=16
              (cpb_mlp): Sequential(
                (0): Linear(in_features=2, out_features=512, bias=True)
                (1): ReLU(inplace=True)
                (2): Linear(in_features=512, out_features=16, bias=False)
              )
              (qkv): Linear(in_features=512, out_features=1536, bias=False)
              (attn_drop): Dropout(p=0.0, inplace=False)
              (proj): Linear(in_features=512, out_features=512, bias=True)
              (proj_drop): Dropout(p=0.0, inplace=False)
              (softmax): Softmax(dim=-1)
            )
            (drop_path): DropPath(drop_prob=0.083)
            (norm2): LayerNorm((512,), eps=1e-05, elementwise_affine=True)
            (mlp): Mlp(
              (fc1): Linear(in_features=512, out_features=2048, bias=True)
              (act): GELU(approximate='none')
              (fc2): Linear(in_features=2048, out_features=512, bias=True)
              (drop): Dropout(p=0.0, inplace=False)
            )
          )
          (16): SwinTransformerBlock(
            dim=512, input_resolution=(16, 16), num_heads=16, window_size=16, shift_size=0, mlp_ratio=4.0
            (norm1): LayerNorm((512,), eps=1e-05, elementwise_affine=True)
            (attn): WindowAttention(
              dim=512, window_size=(16, 16), pretrained_window_size=(0, 0), num_heads=16
              (cpb_mlp): Sequential(
                (0): Linear(in_features=2, out_features=512, bias=True)
                (1): ReLU(inplace=True)
                (2): Linear(in_features=512, out_features=16, bias=False)
              )
              (qkv): Linear(in_features=512, out_features=1536, bias=False)
              (attn_drop): Dropout(p=0.0, inplace=False)
              (proj): Linear(in_features=512, out_features=512, bias=True)
              (proj_drop): Dropout(p=0.0, inplace=False)
              (softmax): Softmax(dim=-1)
            )
            (drop_path): DropPath(drop_prob=0.087)
            (norm2): LayerNorm((512,), eps=1e-05, elementwise_affine=True)
            (mlp): Mlp(
              (fc1): Linear(in_features=512, out_features=2048, bias=True)
              (act): GELU(approximate='none')
              (fc2): Linear(in_features=2048, out_features=512, bias=True)
              (drop): Dropout(p=0.0, inplace=False)
            )
          )
          (17): SwinTransformerBlock(
            dim=512, input_resolution=(16, 16), num_heads=16, window_size=16, shift_size=0, mlp_ratio=4.0
            (norm1): LayerNorm((512,), eps=1e-05, elementwise_affine=True)
            (attn): WindowAttention(
              dim=512, window_size=(16, 16), pretrained_window_size=(0, 0), num_heads=16
              (cpb_mlp): Sequential(
                (0): Linear(in_features=2, out_features=512, bias=True)
                (1): ReLU(inplace=True)
                (2): Linear(in_features=512, out_features=16, bias=False)
              )
              (qkv): Linear(in_features=512, out_features=1536, bias=False)
              (attn_drop): Dropout(p=0.0, inplace=False)
              (proj): Linear(in_features=512, out_features=512, bias=True)
              (proj_drop): Dropout(p=0.0, inplace=False)
              (softmax): Softmax(dim=-1)
            )
            (drop_path): DropPath(drop_prob=0.091)
            (norm2): LayerNorm((512,), eps=1e-05, elementwise_affine=True)
            (mlp): Mlp(
              (fc1): Linear(in_features=512, out_features=2048, bias=True)
              (act): GELU(approximate='none')
              (fc2): Linear(in_features=2048, out_features=512, bias=True)
              (drop): Dropout(p=0.0, inplace=False)
            )
          )
        )
        (downsample): PatchMerging(
          input_resolution=(16, 16), dim=512
          (reduction): Linear(in_features=2048, out_features=1024, bias=False)
          (norm): LayerNorm((1024,), eps=1e-05, elementwise_affine=True)
        )
      )
      (3): BasicLayer(
        dim=1024, input_resolution=(8, 8), depth=2
        (blocks): ModuleList(
          (0): SwinTransformerBlock(
            dim=1024, input_resolution=(8, 8), num_heads=32, window_size=8, shift_size=0, mlp_ratio=4.0
            (norm1): LayerNorm((1024,), eps=1e-05, elementwise_affine=True)
            (attn): WindowAttention(
              dim=1024, window_size=(8, 8), pretrained_window_size=(0, 0), num_heads=32
              (cpb_mlp): Sequential(
                (0): Linear(in_features=2, out_features=512, bias=True)
                (1): ReLU(inplace=True)
                (2): Linear(in_features=512, out_features=32, bias=False)
              )
              (qkv): Linear(in_features=1024, out_features=3072, bias=False)
              (attn_drop): Dropout(p=0.0, inplace=False)
              (proj): Linear(in_features=1024, out_features=1024, bias=True)
              (proj_drop): Dropout(p=0.0, inplace=False)
              (softmax): Softmax(dim=-1)
            )
            (drop_path): DropPath(drop_prob=0.096)
            (norm2): LayerNorm((1024,), eps=1e-05, elementwise_affine=True)
            (mlp): Mlp(
              (fc1): Linear(in_features=1024, out_features=4096, bias=True)
              (act): GELU(approximate='none')
              (fc2): Linear(in_features=4096, out_features=1024, bias=True)
              (drop): Dropout(p=0.0, inplace=False)
            )
          )
          (1): SwinTransformerBlock(
            dim=1024, input_resolution=(8, 8), num_heads=32, window_size=8, shift_size=0, mlp_ratio=4.0
            (norm1): LayerNorm((1024,), eps=1e-05, elementwise_affine=True)
            (attn): WindowAttention(
              dim=1024, window_size=(8, 8), pretrained_window_size=(0, 0), num_heads=32
              (cpb_mlp): Sequential(
                (0): Linear(in_features=2, out_features=512, bias=True)
                (1): ReLU(inplace=True)
                (2): Linear(in_features=512, out_features=32, bias=False)
              )
              (qkv): Linear(in_features=1024, out_features=3072, bias=False)
              (attn_drop): Dropout(p=0.0, inplace=False)
              (proj): Linear(in_features=1024, out_features=1024, bias=True)
              (proj_drop): Dropout(p=0.0, inplace=False)
              (softmax): Softmax(dim=-1)
            )
            (drop_path): DropPath(drop_prob=0.100)
            (norm2): LayerNorm((1024,), eps=1e-05, elementwise_affine=True)
            (mlp): Mlp(
              (fc1): Linear(in_features=1024, out_features=4096, bias=True)
              (act): GELU(approximate='none')
              (fc2): Linear(in_features=4096, out_features=1024, bias=True)
              (drop): Dropout(p=0.0, inplace=False)
            )
          )
        )
      )
    )
    (norm): LayerNorm((1024,), eps=1e-05, elementwise_affine=True)
    (avgpool): AdaptiveAvgPool1d(output_size=1)
    (head): Identity()
  )
  (decoder): Sequential(
    (0): Conv2d(1024, 12288, kernel_size=(1, 1), stride=(1, 1))
    (1): PixelShuffle(upscale_factor=32)
  )
)
[2024-03-05 03:22:31 hydro_simmim_pretrain] (main_simmim_pt.py 83): INFO number of params: 99507576
[2024-03-05 03:22:31 hydro_simmim_pretrain] (utils_simmim.py 84): INFO All checkpoints founded in output/hydro_simmim_pretrain/hydro_simmim_pretrain_swinv2_base_img256_window16_800ep: []
[2024-03-05 03:22:31 hydro_simmim_pretrain] (main_simmim_pt.py 101): INFO no checkpoint found in output/hydro_simmim_pretrain/hydro_simmim_pretrain_swinv2_base_img256_window16_800ep, ignoring auto resume
…
